EEGNet8,4_EA.ckpt (torch, 68248 bytes, 44 tensors)

encoder.inception_block.0.0.weight f4 [8, 1, 1, 64]
000000 f0 86 b6 3d 62 20 46 3d f0 c9 bc 3d 6d e6 0a 3e
       0.08912456 0.048370726 0.09218204 0.13564463
000010 a1 33 aa 3c 1a 12 d3 bd 80 b1 c1 3d 27 e7 1f 3e
       0.020776572 -0.10306187 0.094576836 0.15615521
000020 42 b9 1d bd 1c 99 b7 be 27 ef 17 bf a7 40 be be
       -0.038506754 -0.35859 -0.5934929 -0.371587
000030 f3 57 40 3d 34 73 6a 3e 34 71 74 3e 4d e6 ee bd
       0.046958875 0.22895509 0.23871309 -0.1166502
000040 0a c7 d3 be ff 19 b7 be 4d cd 47 be 04 8d 3b 3c
       -0.41362792 -0.3576202 -0.1951191 0.011447195
000050 ce e0 be 3d 0e cf 2e be 56 6b a2 be 30 43 b1 be
       0.09320222 -0.17071173 -0.31722516 -0.34621572
000060 3c 55 91 bd 95 2c 6f 3e 15 0a b7 3e 35 8d 02 3e
       -0.07096335 0.2335685 0.3574988 0.12749179
000070 47 e6 75 bd 45 4f 09 bd 97 f2 2b be f8 08 d4 3d
       -0.060034063 -0.033522863 -0.1679176 0.10353273
000080 f0 dc a6 3e 66 38 07 3e 66 2e 78 be db 06 75 bf
       0.32590437 0.13205108 -0.2423645 -0.95713586
000090 96 e7 1c bf ea 45 47 3e a6 6c c7 3e a5 42 8d 3e
       -0.6129087 0.19460264 0.3895008 0.27589908
0000a0 32 1d 4e 3e 77 c4 24 3e 6e 56 5d 3e 4f c1 44 3c
       0.20128325 0.1609057 0.21615002 0.012008979
0000b0 26 3d 9b 3d 23 cd 4b be d1 91 73 be 14 98 ff bd
       0.075800225 -0.19902472 -0.23786093 -0.124801785
0000c0 5e 21 0c be f2 e9 29 3e e7 f2 85 bc 8e 76 62 3d
       -0.13684604 0.1659315 -0.016351176 0.055288844
0000d0 e3 c5 c3 3c 36 e8 ca 3d d5 16 8d 3d 21 56 95 3d
       0.02389807 0.09907572 0.068891205 0.072918184
0000e0 f8 63 cf bd fa e8 d6 bd 64 b0 16 3d e6 be dd bb
       -0.101264894 -0.104936555 0.036789313 -0.0067671416
0000f0 38 ad 4b 3c 38 ce a5 bd 6c 91 36 be b9 62 be 3d
       0.012431435 -0.08095974 -0.17828912 0.092961736
000100 43 e1 a0 be 2c 22 12 be 1e 57 ab 3c a9 6b d6 3c
       -0.3142186 -0.14270848 0.020915564 0.026174383
000110 40 d9 26 bd 3a 18 76 3d 48 7b d2 3c ad 7c 67 3d
       -0.04073453 0.060081698 0.02569355 0.056515384
000120 d5 97 ca 3d cc fe 3b 3e 2c 8e ce bd 53 b3 6b bd
       0.09892241 0.18358916 -0.10085711 -0.057544064
000130 9a 9a 8c 3d fd e9 ba 3d f0 f4 15 be ca d9 a3 bd
       0.068654254 0.09126661 -0.14644217 -0.08000524
000140 66 9e cf bd 06 e1 88 3d 97 dd 99 3d 90 b6 97 bd
       -0.10137634 0.06683545 0.07512968 -0.07407868
000150 17 c5 8e 3d 84 5e 09 3e bc 83 2a 3e cd 54 a7 3e
       0.06971186 0.13414961 0.16651815 0.32681885
000160 2c ba 24 bc 6a c2 a5 be 30 be e2 be 49 5b cc be
       -0.010054152 -0.3237489 -0.44285727 -0.39913395
000170 ae f1 bd bc d2 63 e9 bd ca c5 dd bd e7 f3 29 bd
       -0.02318653 -0.11395992 -0.10828741 -0.04149237
000180 19 dd c8 3e 43 04 73 3f d0 23 64 3f 11 3f ca 3e
       0.39231184 0.9492838 0.89117146 0.3950124
000190 00 df 43 3d c5 4f ba be 1a a8 39 be 0b be a6 be
       0.04782009 -0.36388984 -0.18130532 -0.32566866
0001a0 80 d6 f3 be 2c d3 a6 be ab 6c df 3d 03 62 df 3e
       -0.47624588 -0.32582986 0.10909399 0.43629465
0001b0 33 bc 34 3f 72 63 72 3e 08 9c 8b bc c7 c9 33 be
       0.7059967 0.23670748 -0.017042175 -0.1755744
0001c0 74 3f 8c bd bc 1a 17 be de f4 83 be ad 00 54 be
       -0.0684804 -0.14756292 -0.25772756 -0.20703383
0001d0 fe cd 10 be ce d7 1f 3e ac b2 8b 3d 37 6e d6 3c
       -0.1414108 0.15609667 0.06821188 0.026175601
0001e0 7a 96 b9 bd 34 60 7b 3d 3b 22 c8 3d 6d 96 39 3e
       -0.09061904 0.061371043 0.09772154 0.18123789
0001f0 9e 05 37 bc eb 4d d8 bd 12 1c 3f be bd 0c 07 3d
       -0.011170773 -0.10561737 -0.18663052 0.032971133
000200 e2 0c 97 bd 9a fe 18 be 35 c9 c1 bd 70 04 45 3c
       -0.07375504 -0.14940873 -0.09462205 0.012024984
000210 32 fe 8b 3d 49 47 10 3e 50 62 9a 3e 05 1e 9a 3e
       0.06835593 0.14089693 0.3015313 0.30101028
000220 f3 7e 9e 3e 3e 92 cd 3e b9 5a 4d 3e 5e 3d 80 3e
       0.3095623 0.40150636 0.20054139 0.2504682
000230 4e 0a 32 3e 5d 82 01 3e 39 45 8a 3c 53 e4 d1 bc
       0.17386743 0.12647386 0.016878711 -0.025621569
000240 7c 89 25 be be 3c 7d be 7a 9c 10 be 92 df a5 be
       -0.16165727 -0.24730203 -0.14122191 -0.32397133
000250 b6 3f 03 bf ce 2b c8 be 7c 17 ab be 10 53 9c be
       -0.5126909 -0.3909592 -0.33416355 -0.30532122
000260 a7 ae 1f be d2 a6 d6 bd 6f 40 b3 3d 09 bc 53 3e
       -0.15593968 -0.10481037 0.08752524 0.20677198
000270 b0 4d 94 3e 40 0d 9c 3e 14 25 9e 3e c8 41 d4 3e
       0.2896552 0.3047886 0.30887663 0.41456437
000280 4e 76 64 3e 05 a2 5f 3e d2 73 e8 3d 85 5e d4 3d
       0.22310755 0.2183915 0.11350216 0.10369591
000290 ee 24 ab 3d 3b 2f 57 bd 22 59 41 bb fc bc 84 be
       0.08356653 -0.052535277 -0.002950259 -0.25925434
0002a0 39 57 44 be 61 be 92 be 50 dd 85 be 2c fe 9e be
       -0.19173898 -0.28660873 -0.2614541 -0.31053293
0002b0 2f 0b 75 be 9f 66 4a bd 5e 25 1e 3d 6b bc 1f 3e
       -0.23930047 -0.049414273 0.038609855 0.1559922
0002c0 55 34 7e 3e 62 10 9a 3e d2 4b c1 3e e4 9a a2 3e
       0.2482465 0.30090624 0.3775316 0.31758797
0002d0 24 5d 3c 3e 5f ee 0f 3e f1 28 52 3e c9 7e 27 3e
       0.18394905 0.14055775 0.2052343 0.16356958
0002e0 99 89 5c 3d 36 e1 ce bc 12 2f 48 bd d5 e4 14 be
       0.05384216 -0.025253873 -0.048873015 -0.14540417
0002f0 0f cf ff bc 7a 93 25 be d7 e2 14 be 0e 6a 37 be
       -0.031226663 -0.16169539 -0.14539658 -0.1791155
000300 45 05 a5 bd 93 73 68 3d 19 dd 80 3e b4 96 0d be
       -0.08057646 0.056750845 0.25168684 -0.1382702
000310 de d5 83 be ab af 72 be 29 0d 92 bd 73 80 9b 3e
       -0.25749105 -0.23699825 -0.07131416 0.30371436
000320 ba d1 8e 3e 72 2d 99 3d 16 dc a0 be 27 43 5f be
       0.27894384 0.07479371 -0.31417912 -0.2180296
000330 d4 95 14 bd 5d 1c 85 3e bb cd 04 3e a3 71 cb 3d
       -0.0362757 0.25998202 0.12969105 0.09933784
000340 90 b3 03 bd 7a b6 05 be 7e 2a 60 3d 30 51 6d 3e
       -0.032153666 -0.1305789 0.054728024 0.23175502
000350 d4 f0 8b 3d 6e 4c b7 be fd b8 41 be dd 1e af 3c
       0.06833044 -0.358005 -0.18918224 0.021377021
000360 9c 23 d4 3e 36 d2 f0 3e cc 2b 90 3e bd 04 c9 3c
       0.41433418 0.47035378 0.28158414 0.024538392
000370 7d 6d 41 be 5b 6c 04 bd a7 19 0e be b8 17 8c be
       -0.18889423 -0.0323299 -0.13876973 -0.27361846
000380 fe 69 5d bf 05 28 19 bf f5 51 26 be 97 fe 77 3e
       -0.86489856 -0.5982669 -0.16242202 0.24218212
000390 ea d9 e3 3e 23 d9 52 3e 92 15 25 3e 94 3f ef 3d
       0.44502193 0.20590644 0.1612151 0.116820484
0003a0 14 38 0f be 88 1f dc bd 73 a3 81 be fd 96 0d be
       -0.13986236 -0.107482016 -0.25320014 -0.13827129
0003b0 86 5b 06 be ec 7a 3c bd 44 4c 40 3e ea 5f a9 3e
       -0.13120851 -0.046015665 0.18779093 0.3308099
0003c0 77 4b 9a 3e 9f 4a f4 3d 1e 80 11 bd f5 a0 b6 be
       0.301357 0.11928295 -0.035522573 -0.35669675
0003d0 96 0b 8c be e0 db 24 be 75 81 1e be 98 e3 b1 bd
       -0.2735259 -0.160995 -0.15479071 -0.08685988
0003e0 44 da dc 3d 62 aa 82 3e 53 c3 a4 3e 42 e9 18 3e
       0.10783818 0.25520617 0.3218027 0.14932731
0003f0 6f f9 dc ba 3f db 12 bd ff 8c f6 3d a7 39 d5 be
       -0.0016859005 -0.03585362 0.120386116 -0.41645548

encoder.inception_block.0.1.weight f4 [8]
000000 9a 16 80 3f 3c 12 80 3f 0c 0f 80 3f 31 1e 80 3f
       1.0006897 1.0005565 1.0004592 1.0009214
000010 36 15 80 3f 91 12 80 3f e1 14 80 3f 00 0d 80 3f
       1.0006473 1.0005666 1.0006372 1.0003967

encoder.inception_block.0.1.bias f4 [8]
000000 76 23 b6 36 f3 81 17 37 f3 76 04 35 a6 07 0e 36
       5.428151e-06 9.0305575e-06 4.9346926e-07 2.11641e-06
000010 11 98 0f b8 33 81 13 33 98 ac 69 36 37 c2 21 b7
       -3.423548e-05 3.434361e-08 3.4820168e-06 -9.641567e-06

encoder.inception_block.0.1.running_mean f4 [8]
000000 cf 76 8d 38 ac 27 9c b8 fa b9 7a 37 7d 46 d5 34
       6.745534e-05 -7.446049e-05 1.4944462e-05 3.972563e-07
000010 cc 4f 4e b6 16 81 0f 37 af 63 f6 b7 54 e7 23 b8
       -3.074284e-06 8.553519e-06 -2.9371904e-05 -3.907767e-05

encoder.inception_block.0.1.running_var f4 [8]
000000 3f 33 fb 40 90 3c 64 41 46 09 d5 3f 1c a4 20 41
       7.8500056 14.264786 1.6643455 10.040066
000010 28 06 a0 40 cc 0c aa 40 1a 27 c4 40 82 a4 10 41
       5.0007515 5.314062 6.129773 9.040163

encoder.inception_block.0.2.weight f4 [32, 1, 28, 1]
000000 c6 69 a9 3d fa 27 88 3d 2e 47 0e 3d e6 4e b0 3e
       0.08272128 0.0664825 0.03473585 0.34435195
000010 3d 8e 93 3e 8a 48 88 3e 94 2c 33 be 56 a9 76 3e
       0.28819457 0.26617843 -0.17497474 0.24088034
000020 fd f3 eb bd d6 e1 25 3c 33 eb 9d 3c 57 b7 77 3d
       -0.115211464 0.010124644 0.01927719 0.06047758
000030 1a 64 1c 3e 50 2f 34 bd 3b 6c 94 be 43 71 80 3e
       0.1527256 -0.043990433 -0.28988823 0.25086412
000040 08 2f cb 3d 0b e2 e0 bd ae 68 9f be 30 98 d6 be
       0.0992108 -0.10980614 -0.31134552 -0.41912985
000050 9d 69 15 3d 0d 7e 04 be 95 cd d9 bc 86 d7 70 be
       0.036477674 -0.1293871 -0.026587287 -0.23519716
000060 f6 fc 0b 3e a6 5e e7 bd d0 bf 23 be 19 92 cf bd
       0.13670716 -0.1129735 -0.1599114 -0.10135288
000070 f2 a0 5d bb 7a be 7a be 44 ab 51 3d d4 4b 88 3c
       -0.0033817855 -0.24486724 0.051188722 0.01663772
000080 21 d6 b5 3d ee fa 40 be ea 64 5b bd e1 ed 3c be
       0.088787325 -0.18845722 -0.053563036 -0.18450119
000090 69 70 5f be ee 95 a4 be 09 c6 39 3d 94 93 6e 3e
       -0.21820225 -0.32145637 0.045354877 0.23298484
0000a0 3a 1e 05 3f 81 35 83 bd b0 19 d8 bd 8c ab 0c be
       0.5199925 -0.064066894 -0.105517745 -0.13737315
0000b0 b7 fd cc 3c 59 65 05 3e 26 78 d3 be 03 a2 e5 bd
       0.025023324 0.13026942 -0.41302603 -0.11212542
0000c0 73 72 1e be 47 08 34 3e dd b4 fd bc c4 60 7a 3e
       -0.15473346 0.17581283 -0.030970031 0.24450976
0000d0 1e f3 02 bd 30 99 0d 3e 34 e0 b3 bd 76 f2 e8 3c
       -0.031970136 0.13827968 -0.08782998 0.028435927
0000e0 55 ab b1 3b 72 ab 9f bd eb 42 db 3d 99 90 98 3e
       0.0054220357 -0.077963725 0.10706123 0.2979782
0000f0 00 9e b2 bc 18 14 2f 3e 3e b9 5b be 40 2e f2 bd
       -0.021803856 0.17097509 -0.21457383 -0.11825228
000100 5a e2 e5 3d 2a 6f c3 be ab 6b 84 3d 55 10 b8 bd
       0.11224814 -0.3817075 0.064658485 -0.0898749
000110 0a 15 50 bd 8e 5f 9b 3e 58 e9 dc 3c 66 69 e1 bd
       -0.050801314 0.3034634 0.026966736 -0.11006431
000120 64 0f ce bc a4 d5 dc be 47 52 0a be 72 f9 47 bd
       -0.025153823 -0.43131745 -0.13507949 -0.048821874
000130 6e 3f c5 bd 83 bc 18 3e 36 94 b7 3e 1d 72 32 be
       -0.09631239 0.14915662 0.35855263 -0.17426343
000140 50 33 2d 3e 38 d6 9a 3d 7b 3b 85 3d 74 cb 98 3e
       0.16914105 0.0756039 0.065054856 0.29842722
000150 44 6a c0 3d c3 33 5c 3e c4 e8 5f 3e 16 04 11 3d
       0.093952686 0.2150412 0.21866137 0.035404287
000160 28 5d d2 bd 60 c0 43 bd be 29 3c 3e 66 70 f3 bd
       -0.102716744 -0.047790885 0.18375298 -0.11886673
000170 34 4a 89 3e f5 1b d8 3d 47 0e a9 3d 04 f5 d3 bd
       0.26814425 0.105522074 0.08254676 -0.103494674
000180 3f 0a 67 bc f6 be f7 3d c7 5c 85 3e 43 07 1f 3d
       -0.014101564 0.1209697 0.26047346 0.038825285
000190 72 b9 94 bd 7d 0c 13 be 02 6c 4f 3d 90 b1 81 3e
       -0.072619334 -0.14360233 0.050640114 0.25330782
0001a0 89 bc 02 be fe 33 a0 be b7 d7 6c 3c d5 5e 90 3e
       -0.12767233 -0.31289667 0.014455727 0.2819735
0001b0 b2 2f 0c 3e b9 d9 08 bf f5 b2 27 be 3a 39 36 3e
       0.1369007 -0.5345722 -0.1637686 0.17795268
0001c0 a3 df e4 3c 60 ba e0 3d ad 2e f5 3c 45 3a 7c bd
       0.02793867 0.10973048 0.029929483 -0.061579008
0001d0 7e 70 7c 3e 30 7f 2d be 06 38 63 3e da 2e 21 3e
       0.24652287 -0.1694305 0.2218934 0.15740529
0001e0 fe b9 13 bc 59 3d 18 3d 04 3a da bc 88 50 c4 bd
       -0.009016512 0.03716788 -0.026638992 -0.095856726
0001f0 8e 25 8b 3e 7b c1 34 be e0 ba 06 3e ab 96 d3 bd
       0.2717709 -0.17651932 0.13157225 -0.10331472
000200 20 6c 95 bd cc 96 32 3e 47 be f1 3d 5d 1e 7d 3e
       -0.07296014 0.17440337 0.11803871 0.24718614
000210 ff 60 9a 3e 2a 4e 53 be 6c 7f e2 3d 0c 3c b3 be
       0.30152127 -0.20635286 0.1105946 -0.3500675
000220 d9 6e e0 3c cc ee 9d 3e 21 b7 22 3e 24 6c 29 3e
       0.027396606 0.3084625 0.1589017 0.16545159
000230 63 1f 81 be d6 fd 3a be 2e 92 ae be 25 9a b4 bd
       -0.2521926 -0.18260893 -0.340959 -0.08818463
000240 8f 3c 02 be 4c 25 81 be f9 82 36 be fc 3b 66 be
       -0.12718414 -0.25223768 -0.178234 -0.2248382
000250 45 4a 76 be 3d 7e 67 be 5d ee 8b bd 77 42 ca be
       -0.24051769 -0.2260675 -0.068325736 -0.39503834
000260 9b f2 08 be f0 f7 34 be 86 9c ae bd 9b 52 8b bd
       -0.13373797 -0.17672706 -0.08525948 -0.06802865
000270 4c 3d 14 bd 67 53 4e bc 5d cd 5e be e0 df 13 be
       -0.03619127 -0.012593127 -0.21758027 -0.1444087
000280 18 05 c1 3e c7 17 85 bd 47 78 2a be 90 8b 6b bd
       0.376992 -0.06498676 -0.16647445 -0.057506144
000290 6b a0 0c 3e 88 37 e9 3d 9f 31 d7 bc cc 0e a2 3d
       0.1373307 0.11387545 -0.026268778 0.079129785
0002a0 3e d3 69 3e 04 89 26 3e 04 c4 9d 3c 60 89 f9 3d
       0.22834489 0.16263205 0.019258507 0.12184405
0002b0 01 30 91 3d 41 c6 87 3e dc af 1a 3e 54 b0 5f bd
       0.07089234 0.26518443 0.15106148 -0.05461152
0002c0 8c 0c 58 3d 39 48 ae bc e8 7b c1 3e 2c 5e 14 3e
       0.05274634 -0.021274673 0.37789845 0.14489049
0002d0 5c cc 9a 3e 55 b0 9d 3d 8f 15 a8 3e a0 a9 05 3e
       0.3023404 0.07699648 0.32828948 0.13052988
0002e0 dd 04 59 3e b2 25 1b bd 03 ce 85 3d 73 07 2e bd
       0.21193261 -0.037877746 0.06533434 -0.042487573
0002f0 0f 34 f5 3a 9d 8d fd 3d fd 60 63 be e9 b2 d1 be
       0.0018707531 0.12380526 -0.22204967 -0.4095681
000300 d3 44 00 be d0 15 b7 bd 4a 9a da bd 0d d9 9d be
       -0.12526254 -0.08939707 -0.106739596 -0.3082966
000310 cb 00 8b bd 48 7e 99 bd 02 2e 26 be 0e 19 d2 be
       -0.067872606 -0.07494789 -0.16228488 -0.4103474
000320 a3 44 ef bd 6d 88 90 be 06 83 3a be 2b de ed 3d
       -0.11683013 -0.28229085 -0.18214044 0.11614641
000330 59 20 b4 bd 94 1e 8a bd 8e 46 35 3d 24 82 a1 bd
       -0.08795232 -0.067441136 0.04425674 -0.078861505
000340 80 46 0d 3f 85 e5 1d be 86 7f 15 be 06 c7 6f 3d
       0.551857 -0.15419586 -0.14599428 0.058539413
000350 07 e8 43 3e 1c 6a 13 3e 39 90 39 3e 53 71 65 bd
       0.1913148 0.14395946 0.18121423 -0.056016278
000360 9a 19 bf bc ef a0 4c 3e f1 80 80 bd 26 bc 54 bd
       -0.023327637 0.19983266 -0.062745936 -0.051937245
000370 c3 e3 7b bd d1 60 ac 3e fe 55 b4 bd ec f7 01 be
       -0.061496507 0.33667615 -0.08805464 -0.12692231
000380 03 48 a0 3e 14 aa 94 3e 63 dd c1 3e f1 d1 e8 3d
       0.3130494 0.2903601 0.37864217 0.11368168
000390 17 5b 81 3e 67 97 7d 3d a0 c1 65 3c 70 fc b3 3d
       0.2526481 0.061911967 0.014023215 0.08788383
0003a0 5d 28 0d be a4 56 04 3e 8d be cc bc d0 07 04 bd
       -0.13784929 0.12923676 -0.024993205 -0.032234013
0003b0 0a 7f a4 3c c1 0a 93 3e 2a 6c d2 3d d8 a7 09 3e
       0.020080108 0.28719142 0.10274537 0.13442934
0003c0 20 08 16 be 01 89 2f bd f0 9f 58 3d c8 88 23 3e
       -0.14651537 -0.042855266 0.052886903 0.15970147
0003d0 c0 14 c3 bd e3 47 9a bb 73 6e 85 3d 34 83 5a be
       -0.09525442 -0.0047082766 0.06515207 -0.21339113
0003e0 3d 8b 04 be 5b bb f9 be e7 b3 86 be 0f 48 3a 3d
       -0.1294374 -0.48775753 -0.2630913 0.045478877
0003f0 ed 1f 82 3e a8 ef 1d bd a3 3c f2 3e 56 19 d2 3d
       0.25414982 -0.038558632 0.47311887 0.10258739

encoder.inception_block.0.3.weight f4 [32]
000000 56 e3 42 40 32 94 69 40 ca a1 3a 40 37 13 3f 40
       3.0451255 3.6496701 2.9161248 2.9855478
000010 58 5d 33 40 5a c6 58 40 2d be 41 40 c7 ff 41 40
       2.8025723 3.3871064 3.0272324 3.0312364
000020 53 b7 4f 40 b5 8c 2c 40 b0 c5 45 40 54 88 55 40
       3.2455642 2.696088 3.090191 3.3364458
000030 b9 0b 67 40 9a b3 50 40 82 43 4b 40 d3 30 5d 40
       3.6100905 3.260962 3.1759953 3.456105
000040 cb ed 3e 40 cb e5 28 40 38 a9 3c 40 ca 18 50 40
       2.9832637 2.6390254 2.9478283 3.251513
000050 56 96 16 40 d8 a4 1a 40 0b 60 1e 40 0e 3d 17 40
       2.3529258 2.4163113 2.474612 2.3631015
000060 af d1 49 40 dc d5 4c 40 76 72 49 40 c0 42 51 40
       3.153423 3.200553 3.1476111 3.269699
000070 99 7c 2d 40 82 91 3a 40 9d 1c 46 40 38 0f 37 40
       2.7107298 2.915131 3.0954964 2.8603039

encoder.inception_block.0.3.bias f4 [32]
000000 5a 75 fd bf fd e8 22 c0 09 25 01 c0 cf 0a f8 bf
       -1.9801438 -2.5454705 -2.0178854 -1.9378299
000010 cd 1c f4 bf bb 5f bd bf 37 91 bc bf 27 5d ea bf
       -1.9071289 -1.479484 -1.4731816 -1.8309678
000020 39 3e 15 c0 ad b9 0b c0 f1 f5 01 c0 71 cb 1c c0
       -2.3319228 -2.1832078 -2.030636 -2.449917
000030 c2 5c 12 c0 92 07 17 c0 5e 23 11 c0 63 63 12 c0
       -2.2869115 -2.359837 -2.2677836 -2.287316
000040 87 e4 d5 bf ec f6 a9 bf f2 c1 dc bf 08 79 fb bf
       -1.6710366 -1.327848 -1.7246687 -1.9646311
000050 fb 9c a4 bf d5 8f 9f bf dc 1f a5 bf fc 11 8f bf
       -1.2860407 -1.2465769 -1.2900348 -1.1177363
000060 36 e4 f2 bf 13 17 d6 bf 49 d1 e8 bf 79 c7 01 c0
       -1.8975894 -1.6725792 -1.8188869 -2.0277998
000070 e0 5e e7 bf 12 6d 03 c0 95 32 0d c0 b3 8c 0a c0
       -1.8075829 -2.0535321 -2.2062123 -2.1648376

encoder.inception_block.0.3.running_mean f4 [32]
000000 8a 9e 03 38 40 13 2d 39 53 11 2e b8 0d 38 94 b7
       3.1380485e-05 0.00016505737 -4.1500967e-05 -1.7669076e-05
000010 34 68 9c b8 73 11 99 38 ac 73 89 38 1f 39 ba b7
       -7.458069e-05 7.298859e-05 6.5542146e-05 -2.2199527e-05
000020 cc 2f f7 b8 21 c6 98 38 9d 05 e5 37 e4 dc 95 b5
       -0.00011786781 7.284829e-05 2.7301541e-05 -1.1165653e-06
000030 54 b8 d8 38 77 3e 8a b7 53 48 40 36 a6 e7 dd b7
       0.000103340164 -1.647997e-05 2.8652328e-06 -2.6453123e-05
000040 ef 08 13 b9 28 04 95 b7 50 af 1c b9 18 c4 a2 b8
       -0.0001402234 -1.776412e-05 -0.00014942628 -7.761287e-05
000050 d1 63 11 38 cf 53 31 38 16 d6 d2 b7 d9 e6 16 b8
       3.4663655e-05 4.227814e-05 -2.5133642e-05 -3.597778e-05
000060 0e 3d f6 36 f8 a1 12 b8 b6 50 8f b8 9c 40 74 b8
       7.338479e-06 -3.4959958e-05 -6.833805e-05 -5.8234305e-05
000070 4a 65 06 b8 54 8f a1 37 4d 41 75 b8 37 b1 a7 b8
       -3.2042422e-05 1.9259438e-05 -5.8473368e-05 -7.9961894e-05

encoder.inception_block.0.3.running_var f4 [32]
000000 35 42 84 3f ab 1f 80 3f 6d 53 7a 3f 63 38 89 3f
       1.0332705 1.0009664 0.9778355 1.0720333
000010 3a 4e 4c 3f a2 f1 d7 3f 51 a5 bf 3f 58 95 91 3f
       0.79806864 1.6870615 1.4972326 1.1373701
000020 f8 60 8a 3f e8 88 8e 3f 7d 3f 5e 3f fb 40 eb 3f
       1.0810843 1.113553 0.86815625 1.8379205
000030 7b 51 7e 3f 81 f9 79 3f a2 69 7b 3f 1f 36 6f 3f
       0.9934308 0.9764634 0.9820806 0.9344196
000040 6d 89 61 3f eb 65 84 3f e0 7e 26 3f 7e fc 3e 3f
       0.8810032 1.0343603 0.65037346 0.7460402
000050 31 b5 73 3f 72 f1 4d 3f 29 0f 7c 3f eb b5 62 3f
       0.9519835 0.8044654 0.9846063 0.88558835
000060 e0 40 6e 3f cb 6a 6e 3f f5 3e 8d 3f 88 38 4f 3f
       0.9306774 0.93131703 1.1034838 0.80945635
000070 d5 e6 6d 3f 35 82 60 3f 0c 86 a7 3f 9f 94 7f 3f
       0.92930347 0.8769868 1.3087783 0.9983615

encoder.conv_2.0.weight f4 [32, 1, 1, 16]
000000 d1 f4 4c 3e 5b 52 46 3e e2 83 42 3e f7 25 07 3e
       0.20015265 0.19367354 0.18995622 0.13198076
000010 8a f5 1b 3e 41 e7 3b 3e 80 fb 45 3e a8 a0 6e 3e
       0.15230384 0.18349935 0.19334221 0.23303473
000020 10 61 83 3e 41 ed 42 3e bb 2f 42 3e ae 0d 43 3e
       0.2565999 0.19035818 0.1896352 0.19048187
000030 92 87 3e 3e 3c 93 6f 3e 50 50 8b 3e 5a 91 5e 3e
       0.18606403 0.23396009 0.2720971 0.21735135
000040 93 e9 4c be 4e da 32 be 02 73 6f be 13 4b 20 be
       -0.20010976 -0.17466089 -0.23383716 -0.15653639
000050 f6 4d 1f be e5 b2 32 be 2c 42 38 be ad 78 5e be
       -0.15557083 -0.17451055 -0.17993993 -0.21725722
000060 02 ba 3d be 9a e1 43 be ae 4a 33 be a7 a2 cf bd
       -0.18527988 -0.19129029 -0.17508957 -0.10138445
000070 58 f3 28 be ac fb 39 be 0b d4 3b be bc a0 29 be
       -0.16499078 -0.18162411 -0.18342607 -0.16565222
000080 12 06 7f be a8 40 92 be 2e 8c 8e be 2b 9a 68 be
       -0.2490466 -0.28564954 -0.27841324 -0.2271506
000090 1e f0 31 be 04 4b 70 be 20 c2 63 be 2d 79 4d be
       -0.17376754 -0.23466116 -0.22242022 -0.20065756
0000a0 01 ad 6c be 7d 3f 3e be b5 31 73 be 12 3a 62 be
       -0.23112871 -0.18578906 -0.2374943 -0.22092465
0000b0 75 8a 65 be 82 a8 a3 be 26 82 ae be c5 b6 8f be
       -0.22416098 -0.319645 -0.3408367 -0.2806913
0000c0 1c 91 42 be d1 69 43 be 4c 20 7d be 81 76 ee bd
       -0.19000667 -0.19083335 -0.24719352 -0.116436966
0000d0 70 26 ba bd d3 54 03 be b1 25 00 be 1b 10 0d be
       -0.090893626 -0.12825327 -0.12514378 -0.13775675
0000e0 ee c0 15 be 56 14 2c be 6e 11 3c be 1d fb 05 be
       -0.14624378 -0.16804633 -0.18366024 -0.13084073
0000f0 7b 57 19 be ec 6c 3f be b0 b5 6f be d5 96 1e be
       -0.14974777 -0.18693894 -0.23409152 -0.15487225
000100 58 46 6d be 20 57 7d be 6b 30 92 be 57 76 ef bd
       -0.23171365 -0.24740267 -0.28552565 -0.116924934
000110 53 a7 05 be 52 c7 06 be 61 d8 0a be c0 bb 0a be
       -0.1305211 -0.13161972 -0.13559105 -0.13548183
000120 43 13 23 be dc f7 41 be cf 05 20 be 88 66 14 be
       -0.15925317 -0.18942207 -0.15627216 -0.14492238
000130 e3 18 fd bd f2 3c 90 be 48 0e 91 be bd d7 9c be
       -0.123582624 -0.28171498 -0.28331208 -0.30633345
000140 7f 0e 6d be 5c c0 82 be 26 38 7d be 8e 97 1d be
       -0.23150061 -0.25537384 -0.2472845 -0.15389845
000150 57 45 19 be ff 8a 31 be ed c5 2c be 9c 48 3a be
       -0.14967857 -0.17338179 -0.16872378 -0.18191761
000160 ea f1 5c be 97 0d 49 be 7f 08 74 be c4 b3 6b be
       -0.21576658 -0.1963409 -0.23831366 -0.23017794
000170 84 1b 4a be 0b ec 88 be 3f 76 78 be b9 ab 86 be
       -0.19737059 -0.26742586 -0.24263857 -0.2630289
000180 6c 6c 86 be d0 61 87 be 52 c9 7f be 21 0c 22 be
       -0.26254594 -0.26441813 -0.24979141 -0.1582494
000190 a1 6f f5 bd f7 d0 1f be aa dd 3b be 5d b5 28 be
       -0.11984182 -0.15607058 -0.18346277 -0.16475435
0001a0 48 74 64 be c3 02 40 be ec 95 65 be 6b f3 24 be
       -0.22309983 -0.18751054 -0.22420472 -0.16108482
0001b0 89 81 2d be 93 78 7c be dc 87 77 be f0 41 75 be
       -0.16943945 -0.2465537 -0.2417292 -0.23950934
0001c0 6c fa 7d 3c fb ce 96 3d 0a 0c 68 bb d6 37 18 3e
       0.0155016 0.07363697 -0.0035407566 0.1486505
0001d0 5a b6 a0 3d 8d 30 18 3e b3 3a 30 3e 2e cc 49 3e
       0.07847281 0.1486227 0.17209892 0.19706795
0001e0 4f 2d 98 3e 42 7f 4d 3e 98 34 3d 3e 83 a6 3e 3e
       0.29722068 0.20068076 0.18477094 0.18618207
0001f0 18 f0 95 3d aa 81 6c 3e 57 6c 0b 3d 74 b3 66 3e
       0.07321185 0.23096338 0.034038868 0.22529393
000200 fd f3 4e 3e 2d 63 4a 3e 57 77 73 3e 86 1d 38 3e
       0.20210262 0.19764395 0.23775993 0.17980012
000210 ee f9 1f 3e c6 51 11 3e 96 a6 11 3e cf ba 37 3e
       0.15622684 0.1419135 0.14223704 0.17942356
000220 27 f5 43 3e 61 50 30 3e ba 98 12 3e 76 be 56 3e
       0.19136487 0.17218162 0.14316073 0.20971093
000230 d3 b0 90 3e e7 c0 87 3e 52 0a 64 3e c9 30 82 3e
       0.28259906 0.2651436 0.22269562 0.25427845
000240 48 56 6d 3e e4 70 4e 3e a6 20 6f 3e c4 ff 5c 3e
       0.23177445 0.20160252 0.23352298 0.21581942
000250 ed aa 3f 3e a8 80 16 3e 3f fa 28 3e 60 42 1b 3e
       0.18717547 0.14697516 0.16501711 0.15162039
000260 3e c9 28 3e 68 64 04 3e 20 f2 0d 3e 57 73 38 3e
       0.16483018 0.12928927 0.13861895 0.18012749
000270 f5 e3 49 3e 58 1c 38 3e 66 f9 0d 3e 2a 1a 1b 3e
       0.19715865 0.17979562 0.13864669 0.151467
000280 cc a6 3f be 5b ca 2e be b7 3e 3c be bb fc 4c be
       -0.18715972 -0.1706938 -0.18383299 -0.20018284
000290 82 1d 45 be 43 51 05 be 2d c5 2e be 18 0d 4a be
       -0.19249538 -0.1301928 -0.17067404 -0.19731557
0002a0 78 45 62 be 38 26 6e be 82 0c 67 be b5 8a 81 be
       -0.22096813 -0.23256767 -0.22563365 -0.25301138
0002b0 14 3a 79 be 11 1f 7b be 4f bd 5f be a9 e5 4f be
       -0.24338561 -0.2452357 -0.21849559 -0.20302452
0002c0 23 0c 69 3e 93 f9 5c 3e 42 ff 80 3e 72 6e 8f 3e
       0.22758536 0.2157958 0.25194746 0.2801395
0002d0 14 83 4f 3e d0 08 4c 3e a8 ba 35 3e 77 84 62 3e
       0.20264846 0.19925237 0.17746985 0.22120844
0002e0 04 81 56 3e 0d 31 1a 3e 0c 87 15 3e ba db 2b 3e
       0.20947653 0.15057774 0.14602298 0.16783038
0002f0 d1 fa 77 3e 92 4f 62 3e 23 dc 61 3e ec 03 7f 3e
       0.24216773 0.22100666 0.22056632 0.2490384
000300 95 c9 19 3e 3f 0e 27 3e 20 d0 26 3e 49 8a c4 3d
       0.15018304 0.16314028 0.16290331 0.09596688
000310 f1 ed 32 3e 16 a2 05 3e 5c 8f 00 3e 37 d5 21 3e
       0.1747358 0.13050112 0.12554687 0.15803991
000320 a9 9d 34 3e fa 58 31 3e 0f e4 04 3e 13 90 c6 3d
       0.17638268 0.17319098 0.12977622 0.09695449
000330 9d 9e ea 3d ad 34 92 3d d8 d5 b3 3d 51 60 ac 3d
       0.11456034 0.07138953 0.08781022 0.084168084
000340 9d 31 87 3d 5b e0 cd 3d a0 9f ae 3d 2b d6 97 3d
       0.0660126 0.10052558 0.0852654 0.07413896
000350 01 f4 0b 3e 05 07 1a 3e 5c ae 31 3e ae 9e 2b 3e
       0.13667299 0.1504174 0.17351669 0.1675975
000360 48 17 6a 3e 2f e2 53 3e 88 a1 7f 3e d4 19 83 3e
       0.22860444 0.20691751 0.24963963 0.25605643
000370 70 74 64 3e c0 bc 9c 3e 64 16 8e 3e 59 55 9f 3e
       0.22310042 0.30612755 0.27751458 0.31119803
000380 51 d0 86 3e 03 e6 a4 3e 2c 98 82 3e 6c 07 64 3e
       0.26330808 0.32206735 0.25506723 0.22268456
000390 f4 f6 88 3e c7 a6 85 3e 58 c9 a0 3e 3c e3 82 3e
       0.2675091 0.26103804 0.31403613 0.2556399
0003a0 f0 08 84 3e 8e b4 7f 3e 70 14 94 3e f5 87 6a 3e
       0.2578807 0.2497122 0.28921843 0.22903426
0003b0 a8 2b 3e 3e 26 1f 49 3e 08 af 45 3e a0 a2 23 3e
       0.18571341 0.19640788 0.1930505 0.15980005
0003c0 cd 26 4f 3e af 48 5b 3e 42 49 3d 3e 85 cb 2b 3e
       0.20229645 0.21414445 0.18484977 0.16776855
0003d0 af a0 2b 3e 9d b6 42 3e 21 12 38 3e 4b 7e 16 3e
       0.16760515 0.19014974 0.17975666 0.14696614
0003e0 40 59 3b 3e 58 a0 10 3e 7c 9c c6 3d 0e 20 d2 3d
       0.18295765 0.14123666 0.09697816 0.1026002
0003f0 50 9d be 3d 54 d7 4e 3e 0a 83 3e 3e 40 c8 61 3e
       0.09307349 0.20199329 0.18604675 0.22049046

encoder.conv_2.1.weight f4 [32, 32, 1, 1]
000000 5c 4a 53 3e a9 6c a1 be 7c 91 c2 3e 76 7c a4 3e
       0.20633835 -0.31528214 0.3800162 0.32126206
000010 c7 49 8c 3e a6 65 19 3f 1d a2 94 3e 52 5a 40 3e
       0.27400038 0.5992073 0.29029933 0.18784454
000020 77 6c 54 3e 39 38 f8 3d 32 26 22 3f 1b 6c 84 3e
       0.20744501 0.121200986 0.6333953 0.25863728
000030 f5 d3 23 3d 5b b8 45 be d0 7c f8 3d 89 1b 12 3d
       0.03999706 -0.19308607 0.12133181 0.03567079
000040 f6 30 15 3e 84 b2 8d be b7 af a1 3e 53 d7 06 3e
       0.14569458 -0.2767526 0.31579372 0.13168077
000050 a3 10 85 3e f6 39 2c 3e 4f bd 66 3e 2f e1 e7 be
       0.25989255 0.16818985 0.22533153 -0.4528899
000060 ce 07 6c 3e a4 a6 81 be b2 1a 54 be 6d 92 c6 3e
       0.23049852 -0.2532245 -0.20713308 0.3878359
000070 bd 7b 35 3e ae 69 d8 be 02 62 3b bd f4 c9 8e 3d
       0.17722984 -0.42268127 -0.045747764 0.06972113
000080 9c e4 d9 3d 06 1f d0 3d f7 ed 91 be 94 fe 0b 3f
       0.10639307 0.10162167 -0.28501865 0.5468533
000090 41 2a db bd b9 9c cd 3e 53 cc b2 3e 79 0f de bd
       -0.10701419 0.40158632 0.34921512 -0.10842795
0000a0 f4 f3 3d 3d 65 03 0e 3f 5b b5 35 3e 29 5c 03 3f
       0.04637523 0.5547393 0.17744963 0.513125
0000b0 be de b4 be 9f b9 22 be 90 c9 ac bd 52 ca 5e be
       -0.3532619 -0.15891121 -0.084368825 -0.21756867
0000c0 a8 c1 e6 3d 26 ef 22 be 87 33 d4 bb 52 e0 c0 bd
       0.11267406 -0.1591154 -0.006475869 -0.09417786
0000d0 38 75 a1 be cf 00 81 be b2 4c 01 be 2b 80 d8 be
       -0.31534743 -0.2519593 -0.12626913 -0.42285284
0000e0 35 ea a1 3e 2b a7 51 be fb bd de bb d2 99 8f bd
       0.31623998 -0.20473926 -0.00679755 -0.07011761
0000f0 15 02 e8 3e 50 03 92 be 13 70 76 be 9b ba 0b be
       0.45314088 -0.28518152 -0.2406619 -0.13645403
000100 79 c9 c2 3d 38 b3 be bc d9 17 25 bb a4 36 b7 bc
       0.09511084 -0.023278818 -0.0025191216 -0.022364922
000110 6b c8 2d bd 05 74 09 bc be 19 12 be a7 b1 90 bd
       -0.04242746 -0.008389478 -0.14267632 -0.070651345
000120 26 e2 09 bf bd 25 37 3f d2 62 90 3d 16 f8 e6 3e
       -0.538607 0.7154196 0.070500985 0.4511115
000130 d9 41 ae 3d 69 35 82 3e e7 ed f8 3c 48 47 d6 3e
       0.08508653 0.25431374 0.030386878 0.41851258
000140 f5 1e 03 bf 38 b7 db be 71 8c 9d 3e 6b 05 55 3e
       -0.5121911 -0.42913222 0.3077121 0.20802848
000150 b4 2e 7e 3d 2d 35 e3 3e 4c a6 8e bd d2 5f b8 be
       0.06205626 0.44376507 -0.06965312 -0.36010605
000160 05 17 89 be a0 e9 0f 3e 6e f1 b5 3e 25 ad 95 3d
       -0.26775375 0.14053965 0.3553576 0.07308415
000170 18 22 af bd c0 99 33 3c 3c 59 86 3d 35 9c 05 bd
       -0.08551425 0.01096195 0.06559989 -0.032619674
000180 a0 8a e5 be 51 22 a6 bd e0 f2 17 bf 14 e4 cd bd
       -0.44832325 -0.08112014 -0.5935497 -0.10053268
000190 6f 7f c2 be d6 7b 1e be fe 8f a6 3e f4 8a 00 bf
       -0.3798785 -0.15476927 0.32531732 -0.50212026
0001a0 41 51 30 3d 18 f6 a1 bd 6f e8 98 3d 71 17 99 be
       0.04304624 -0.07908267 0.07466208 -0.29900697
0001b0 c8 62 88 be 97 57 2e be ad 5c 12 be eb 7a b0 be
       -0.26637864 -0.170256 -0.14293166 -0.3446878
0001c0 4a c9 49 3e e0 09 9e 3e ce b8 0c bd 6e ee 92 be
       0.19705692 0.3086691 -0.03435593 -0.28697532
0001d0 66 1f 1a 3e 19 40 56 3d 44 53 6e be 3b 41 de 3e
       0.1505104 0.052307222 -0.23273951 0.43409142
0001e0 47 22 ac 3d 88 d7 33 be cb b5 ba be 9f 93 b7 be
       0.084049754 -0.17562687 -0.36466822 -0.35854813
0001f0 c3 db cb 3a 53 86 07 3f 51 b7 27 be 7c aa 18 3e
       0.0015553165 0.5293934 -0.16378523 0.14908785
000200 b4 e0 8c be 70 75 21 bd 94 94 09 bf c9 2c 1d be
       -0.27515185 -0.039418638 -0.5374234 -0.15349115
000210 2b 6e b9 be 74 66 4a 3d f0 96 3f 3e 73 7c b7 be
       -0.36216864 0.049414113 0.18709922 -0.35837135
000220 03 f4 55 3e 78 cf 39 bc fe a9 66 3e e7 2b 41 be
       0.20893864 -0.011340968 0.22525784 -0.18864404
000230 43 b2 fe be 2d b9 b3 be a4 ac f0 3d d9 94 92 be
       -0.49745378 -0.35102215 0.117516786 -0.28629187
000240 bc a3 99 3d 57 ff c9 3d a0 d2 9a 3e 1e 3d 7e be
       0.07501933 0.09863155 0.3023882 -0.24828002
000250 8b e8 84 3e 25 03 6b 3d 77 f0 a3 bd c9 31 a3 3e
       0.25958666 0.057376046 -0.080048494 0.3187392
000260 e8 d7 54 3c 84 28 5e be 8b ab bf be df 2c 0f bf
       0.012990929 -0.21695143 -0.37435564 -0.5592784
000270 33 01 cb 3d b4 b6 c0 3e e5 ca e0 bd b0 3e 09 3e
       0.09912338 0.3763939 -0.10976199 0.1340282
000280 5f 2a 01 be 0a 04 1f 3f 1f 6c 53 3e 8d 7b 7c 3d
       -0.1261382 0.6211554 0.20646714 0.061641265
000290 db 3f 7c 3d cc f1 9d bc 77 ee 98 3d 68 52 d6 be
       0.061584335 -0.019280337 0.074673586 -0.41859746
0002a0 b8 e0 a3 be e4 ff 76 be 95 82 9e be 99 08 04 3e
       -0.32007384 -0.24121052 -0.30959 0.12893905
0002b0 6a e8 24 3d 1f a4 47 3e 33 45 ff be 0b d5 bc 3e
       0.04026071 0.19496201 -0.49857482 0.3688129
0002c0 97 e7 91 bd e8 79 80 3d 6b 49 45 be f1 db 0d bf
       -0.071242504 0.06273252 -0.19266288 -0.5541373
0002d0 42 ea 0e be c8 71 ef 3e c1 21 e3 be 8e fd 4c be
       -0.1395655 0.46766496 -0.4436169 -0.20018598
0002e0 2f da 97 bd 02 b6 c3 3e 83 6b 53 be e6 12 d4 be
       -0.07414662 0.38224798 -0.20646481 -0.41420668
0002f0 28 cb eb be fb 0c 8b be c5 6b ed 3d ea 4b 25 3e
       -0.46053433 -0.2715834 0.11592821 0.1614224
000300 3a 03 1d 3e 74 cc 98 be 06 ec 88 bd 29 71 a1 3e
       0.15333262 -0.29843485 -0.06685643 0.31531647
000310 70 91 83 3d 23 d0 1c bc 0a 16 c3 bc f0 67 03 be
       0.064242244 -0.009571108 -0.02381422 -0.12832618
000320 db 22 b3 3e eb 89 66 3e b0 f8 c0 3e 40 cc b9 3e
       0.3498753 0.22513549 0.37689734 0.36288643
000330 3f 3a 87 be 10 10 8d 3d 93 06 fb be e7 ee a4 be
       -0.26411626 0.06887829 -0.49028453 -0.32213518
000340 6e 9c 5e 3e 9f 25 8f be 94 fd db 3e d9 0c 4c bb
       0.2173936 -0.2795839 0.42966902 -0.0031135587
000350 eb b2 d5 bd ec 5c c5 3d 23 82 92 be 4e a2 59 3e
       -0.104345165 0.09636864 -0.2861491 0.2125332
000360 1b 60 1f 3e 35 ae ac 3e 14 13 dc bd ed 0d d5 3c
       0.15564005 0.3372666 -0.10745826 0.026007617
000370 de aa c1 be 25 c6 01 bf e4 7a 2e be 26 8e ed 3e
       -0.37825674 -0.5069297 -0.17039067 0.46397513
000380 2e 08 3d 3e 0a 25 fb 3e 16 c9 b6 3e 5b a3 76 be
       0.18460152 0.49051696 0.3570029 -0.24085753
000390 65 63 77 3e 5c d1 41 be e4 f9 cf be 4d f3 24 be
       0.2415901 -0.1892752 -0.4062034 -0.16108437
0003a0 3d 6e ed be b1 d9 b6 3e 1e 16 c9 3c a7 65 57 be
       -0.46373168 0.3571296 0.02454668 -0.21034871
0003b0 42 e2 53 3e 6b a6 c3 bb e2 56 05 bf f6 41 4b 3e
       0.2069178 -0.0059707663 -0.520857 0.19849381
0003c0 97 46 0c be fd e0 20 be 08 9a d3 be 52 09 06 be
       -0.13698803 -0.15710826 -0.41328454 -0.13089493
0003d0 b5 36 a8 bd c9 a4 98 3a d0 ad e0 3d 58 cd 85 be
       -0.082135595 0.001164579 0.10970652 -0.26133227
0003e0 1a 7d 43 bf a2 81 2d 3e 57 77 34 3e b3 be 93 bc
       -0.76362765 0.16943982 0.1762365 -0.018035268
0003f0 86 3b 12 3d 79 64 db 3c 3c d5 52 3d 13 e9 a4 be
       0.035701297 0.026781308 0.051472887 -0.32209072

encoder.conv_2.2.weight f4 [32]
000000 8a 1e 48 40 76 d5 40 40 24 ba 36 40 47 5a 24 40
       3.126864 3.0130286 2.8551111 2.56801
000010 0a fd 40 40 1c cb 30 40 e9 23 22 40 f6 5b 1e 40
       3.0154443 2.7623968 2.5334418 2.4743629
000020 63 c7 40 40 b7 a0 3c 40 8a 24 3a 40 a3 bf 52 40
       3.0121696 2.9473093 2.9084802 3.2929466
000030 d3 12 40 40 71 39 3c 40 f8 3d 28 40 b9 e4 35 40
       3.001149 2.941006 2.6287823 2.8420851
000040 75 92 f7 3f 05 3c 39 40 8d 4f 27 40 13 7f 20 40
       1.934157 2.8942883 2.6142304 2.507756
000050 07 7f 1b 40 dc 14 1b 40 ba 4e 2b 40 22 73 3f 40
       2.4296281 2.4231482 2.67668 2.9914021
000060 50 39 42 40 43 68 37 40 39 94 28 40 84 03 21 40
       3.034748 2.8657386 2.6340468 2.5158396
000070 5f fd 2b 40 53 cc 05 40 08 e4 43 40 08 e7 19 40
       2.6873395 2.090596 3.060793 2.404726

encoder.conv_2.2.bias f4 [32]
000000 4e f9 06 be 96 44 22 bf fe 9e 10 bf 94 36 02 bf
       -0.1318104 -0.63385904 -0.564926 -0.5086453
000010 d5 7e 34 bf 62 97 32 bf 44 3c 8d be 91 e5 de be
       -0.7050603 -0.6976224 -0.27585042 -0.4353452
000020 20 9b 9c bd 22 b7 20 bf 7d 7f 10 bf 15 c2 81 be
       -0.07646775 -0.6277944 -0.5644453 -0.25343385
000030 60 f4 a0 be e8 c0 44 bf 89 b9 0b bf 63 32 0a bf
       -0.31436443 -0.7685685 -0.5457998 -0.53983134
000040 41 4f 08 be dd 5d ff bd 63 18 c3 bd 82 95 d2 be
       -0.13311483 -0.12469075 -0.09526136 -0.4112969
000050 b7 5b 58 bf a2 31 0f bf ae 5f 0c bf f4 f5 e8 be
       -0.84514946 -0.5593511 -0.54833496 -0.45500147
000060 c7 1d 45 bf 4d 36 0b bf 55 22 41 bf 0a 60 2b bf
       -0.7699856 -0.5437973 -0.7544301 -0.6694342
000070 c8 13 73 bf 60 4e cd be d5 4c 4d be 8b cb f0 be
       -0.9495206 -0.40098858 -0.2004884 -0.4703029

encoder.conv_2.2.running_mean f4 [32]
000000 07 7b b1 3e a2 7c d5 3e af 17 ac bf 42 8d bf bd
       0.34664175 0.4169665 -1.3444728 -0.09353115
000010 37 99 62 be 1e 75 fa 3e 57 f5 ae be 52 3c 8c 3f
       -0.2212876 0.48917478 -0.34171554 1.0955908
000020 b2 74 91 bd 67 6a 4c be 33 46 4e bd 91 87 1c 3d
       -0.07102336 -0.19962464 -0.050359916 0.038215224
000030 f8 99 79 bc 72 d3 c9 3e c7 22 0a 3f 43 a2 35 3e
       -0.015234463 0.39419132 0.53959316 0.17737679
000040 5c 30 ed 3e b2 ba 8d 3d a4 90 fb bc f4 7c 83 3e
       0.46325958 0.06920375 -0.030708618 0.2568127
000050 16 07 aa be 42 c2 01 bf 2f 6e 83 bf 03 c3 6f bd
       -0.3320853 -0.5068704 -1.0268 -0.058535587
000060 53 44 76 bb c3 3f 3d 3f 4a a2 b0 3e 5a 47 dd 3d
       -0.0037577346 0.7392542 0.34498817 0.10804625
000070 11 56 3f 3f 84 68 98 3e d1 12 50 3f 44 a5 e9 3f
       0.747407 0.2976724 0.8127871 1.825356

encoder.conv_2.2.running_var f4 [32]
000000 4a 5f 00 41 2b ba 2b 41 5d 8c 3e 40 40 a6 64 40
       8.023264 10.732951 2.977317 3.572647
000010 6e e9 46 40 54 c0 60 40 26 05 7e 40 09 5e 6e 40
       3.1079974 3.5117388 3.9690642 3.7244895
000020 39 06 e4 40 68 4d 9a 40 ce ec ea 40 1e 93 80 40
       7.1257596 4.821949 7.341407 4.0179586
000030 d3 39 0f 41 41 0f 5a 40 f0 4d b0 40 ed cb 6c 40
       8.951617 3.407181 5.509514 3.6999466
000040 6e ce 65 40 47 36 29 41 ef 98 31 41 2b a1 89 40
       3.5907245 10.575751 11.099837 4.300924
000050 59 3b 40 40 3f 08 44 40 78 f5 a6 40 61 0f 1a 41
       3.0036223 3.0630033 5.2174644 9.628755
000060 cb 81 4e 40 a8 49 f0 40 8d 0d 98 40 80 cf 6e 40
       3.226672 7.5089912 4.751654 3.7314148
000070 93 4e 3a 40 67 ef 83 40 8a 7e 22 41 75 6d 95 40
       2.9110458 4.122974 10.155893 4.6696115

clf.linear.weight f4 [4, 256]
000000 3a 4d c1 3c 5e 81 a8 3c 65 c8 80 3c 39 40 b2 3c
       0.023596395 0.0205695 0.015720556 0.02175914
000010 9e e2 b8 3c 06 0c 88 3c da d6 a3 3c 8a b2 de 3c
       0.022568997 0.016607296 0.01999991 0.027184743
000020 3a e9 ce 3c 89 4c a3 3c e5 5b 97 3c 2f 6c da 3c
       0.025257695 0.019933956 0.018476436 0.026662914
000030 83 41 db 3c 78 13 c1 3c a1 e3 df 3c ca 0c 18 3d
       0.026764637 0.023568854 0.027330222 0.03712157
000040 56 e3 37 3c 27 15 f0 3b d9 68 08 3c 0a bc 8a 3b
       0.011223635 0.0073267403 0.008325779 0.004233842
000050 ff 18 1f 3c c8 35 3a 3c 97 0f e9 3b d1 50 da 3b
       0.009710549 0.0113653615 0.007112454 0.006662466
000060 3b 2a 47 39 f4 23 30 bb 36 7b 86 bb 2c a3 da 3a
       0.00018993851 -0.0026876898 -0.0041040434 0.0016680709
000070 ac bb 91 ba 4a 29 d9 3a 8d 51 9b ba f1 e0 28 3b
       -0.0011118553 0.0016568091 -0.0011849866 0.002576884
000080 49 df 64 3c e8 bb 33 3c 81 fc e4 3b d3 21 fd 3b
       0.013969251 0.010970093 0.0069881086 0.0077249794
000090 1f b2 f0 3b c3 87 87 3b 9c f4 1d 3b be 71 e0 3b
       0.0073454524 0.004136057 0.0024102097 0.0068494966
0000a0 37 53 1a bc ff 43 b4 bb b4 9d b2 ba 87 45 0c 3a
       -0.009419254 -0.00550127 -0.0013627321 0.00053509366
0000b0 d2 db a6 ba 90 17 69 3b 20 2d cb 3a 03 19 1e 3b
       -0.0012730306 0.0035567023 0.0015501119 0.0024123795
0000c0 33 0b a8 3b f3 b9 ea 3a 1d 4e 38 3a 34 bf b4 3b
       0.005128288 0.00179082 0.0007030683 0.0055159573
0000d0 31 f0 28 3c 99 00 07 3c b2 e8 0a 3c d1 69 e6 3b
       0.010311172 0.008239889 0.00847833 0.0070316573
0000e0 d0 6d 7c bc e3 00 11 bc b1 32 5b bc 4e e7 1a bc
       -0.015407041 -0.008850309 -0.013378785 -0.009454561
0000f0 95 d1 8d bc c2 fd 3e bc 04 8c 3e bc 2e 0e 92 bc
       -0.01731185 -0.01165718 -0.011630062 -0.017829027
000100 8c 90 d2 3c 51 3f b0 3c 92 81 8c 3c 0e 7f c6 3c
       0.025703691 0.021514567 0.017151628 0.024230506
000110 37 80 a1 3c 9d c5 b2 3c a9 a0 b3 3c 46 f0 c4 3c
       0.019714458 0.021822745 0.021927195 0.024040353
000120 89 ce 6d 3c b8 3f cc 3b e5 2b 20 3b 05 10 10 3c
       0.014514574 0.006233182 0.0024440226 0.008792882
000130 2f 9f b7 3b 4e ee 73 3b 09 ae 6f 3b 38 c5 73 3b
       0.005603693 0.0037220898 0.003657224 0.003719641
000140 13 d6 ca 3c ce 99 9b 3c 62 c7 bb 3c e2 75 eb 3c
       0.024760282 0.018994238 0.022922222 0.028742734
000150 28 6d c0 3c 4f 1c cd 3c b9 61 f0 3c c4 81 04 3d
       0.02348955 0.025037913 0.029343473 0.032350317
000160 3f ba 0d b9 5f cc 2f ba 1f 94 76 ba 5b 25 c1 38
       -0.0001351619 -0.0006706174 -0.0009406227 9.209915e-05
000170 d8 ec db ba 99 2b 3d bb 51 ab 04 ba 79 ef 76 bb
       -0.0016778959 -0.0028865098 -0.00050609285 -0.0037679358
000180 9f 56 ed 3c cf 44 a3 3c 36 4b 86 3c 35 55 bb 3c
       0.028971968 0.019930271 0.016393285 0.022867778
000190 91 e4 90 3c 33 ed 99 3c 4b e4 bc 3c a3 50 bc 3c
       0.017687114 0.018789863 0.023058077 0.02298767
0001a0 90 1f 0e bc f5 76 ea bb cb e6 bd bb 19 13 8b bb
       -0.008674517 -0.007155294 -0.005795335 -0.00424422
0001b0 4c a2 e5 bb 0e ab b8 bb 7b b6 ae bb c6 14 43 bb
       -0.0070078727 -0.0056356257 -0.005331812 -0.002976702
0001c0 29 16 70 3c 06 73 b7 3c 83 8a 7e 3c 5c 1d 4a 3c
       0.014653721 0.022393715 0.015535953 0.012336101
0001d0 ca a2 9d 3c 61 45 89 3c a2 44 32 3c 23 8d 85 3c
       0.019242663 0.016756715 0.010880621 0.01630265
0001e0 34 5a 73 3b f7 96 64 bb d7 6d a3 ba 89 6d 43 3b
       0.0037132623 -0.003488002 -0.0012468648 0.0029819927
0001f0 b7 d0 81 3b d5 5a 09 bb 25 fd c0 ba 37 70 86 ba
       0.0039616483 -0.002095868 -0.001472388 -0.0010256831
000200 cc b7 99 bc 30 12 05 bc 27 c2 2b bc 03 8f 48 bc
       -0.018764399 -0.008122012 -0.010483301 -0.012241128
000210 fa fd 2a bc 89 32 86 bb 29 28 62 bb 91 c3 2f bb
       -0.010436529 -0.0040953797 -0.00345088 -0.0026819448
000220 87 64 c5 3c b7 84 b2 3c 09 0c af 3c 9c 21 e4 3c
       0.024095787 0.021791799 0.021368043 0.027848057
000230 81 ca c6 3c aa d0 be 3c 4d 12 ee 3c 0e 36 ea 3c
       0.024266483 0.023292858 0.02906146 0.028590228
000240 bf d0 9f 3c 64 44 5d 3c 43 8e 97 3c f4 42 a6 3c
       0.019508718 0.013505075 0.018500453 0.020295598
000250 58 d7 b2 3c c5 9b 9e 3c 02 1b b3 3c 45 3e ac 3c
       0.0218312 0.019361386 0.021863464 0.021025786
000260 3f 53 50 bc d4 1b 67 bc 29 7e 6e bc 5f af 8d bc
       -0.01271516 -0.014105756 -0.014556446 -0.017295538
000270 1b b4 52 bc c3 e4 95 bc fe 7f ac bc 3c 4f e0 bc
       -0.012860323 -0.018297559 -0.021057125 -0.027381532
000280 a3 41 fc b9 a9 a4 28 bc 2b 1a e8 bb 29 5b 5e bb
       -0.0004811409 -0.010293164 -0.0070831976 -0.0033928847
000290 f0 f7 82 ba fb aa 9f bb 8a 8d c7 bb 4b 86 04 3a
       -0.0009992104 -0.0048726774 -0.006089871 0.00050554116
0002a0 e1 01 55 bb c1 e7 67 3b e2 25 81 b9 57 26 99 3b
       -0.003250234 0.0035385939 -0.00024633022 0.00467376
0002b0 3f 3f 88 3b 0f 2a f8 3a 31 98 d9 3b f5 a9 fd 3a
       0.00415793 0.0018933433 0.006640457 0.0019353019
0002c0 5d 1f 78 3c 21 f8 e6 3c 49 9e cd 3c 0f d1 d3 3c
       0.015144196 0.028194489 0.02509989 0.025856523
0002d0 98 d9 f6 3c 32 3c c3 3c 86 31 cc 3c 16 a4 be 3c
       0.030133054 0.023832414 0.024925958 0.023271602
0002e0 e7 5b 12 3d cc a2 f6 3c 72 30 a3 3c 8e d1 d6 3c
       0.035732176 0.030106924 0.019920561 0.02622297
0002f0 36 00 a2 3c 84 ce a6 3c 1a 53 af 3c 14 26 cc 3c
       0.019775491 0.020362146 0.02140193 0.0249205
000300 4e c4 e7 bb 63 be 77 bb 80 87 23 37 3b 94 39 ba
       -0.007072962 -0.0037802688 9.747106e-06 -0.0007079278
000310 7c 84 49 3b 63 d1 42 bb 4c 95 93 bb d3 fc 71 bb
       0.0030749133 -0.0029726855 -0.0045038816 -0.0036924377
000320 fc 8e 8e 3c 68 5b 96 3c 0b 52 78 3c 31 13 d3 3c
       0.017402165 0.018354133 0.015156279 0.025765987
000330 7c de ce 3c db 99 9d 3c cf 72 a3 3c 1d 58 95 3c
       0.025252573 0.019238403 0.019952206 0.018230492
000340 c7 e5 d8 3a 6e d3 c9 3b b7 49 e9 3b 67 b0 13 3c
       0.0016547971 0.0061592376 0.007119383 0.009014226
000350 38 26 ff 3b d8 eb 4a 3c 81 eb 54 3c 0e 1a 80 3c
       0.0077865385 0.012385331 0.012995602 0.015637424
000360 2e 7d 30 bc 23 d9 56 bb 97 6e 9f 3a 2c cc a3 ba
       -0.010772033 -0.0032783232 0.0012163696 -0.0012496761
000370 3a a4 21 bb 97 d4 78 3b 64 8c 89 3b 1f 29 5f 3b
       -0.0024664537 0.003796851 0.004197644 0.003405161
000380 5d da 17 bb 45 2f be ba 3e 88 8e 3b 1e 54 91 bb
       -0.0023170926 -0.0014509937 0.0043497374 -0.0044350764
000390 99 4d 9d bb f5 88 9e bb f2 a6 6f bb 9e d4 fd ba
       -0.00480051 -0.004838104 -0.0036568013 -0.0019365733
0003a0 1a fb f0 3a 3e a0 39 3c cb 85 1a 3c c4 0a e6 3b
       0.0018385381 0.011329709 0.009431313 0.0070203263
0003b0 28 08 d9 3b cb 2e 58 3b fc d4 d2 3b 7f 72 57 3c
       0.0066232868 0.0032986875 0.006434081 0.013149857
0003c0 63 e3 cd 3c 5b 42 61 3c 80 88 7f 3c 37 13 a1 3c
       0.02513284 0.0137487305 0.015596509 0.019662483
0003d0 16 86 c4 3c c5 69 9d 3c e8 5d b7 3c 2e 87 07 3d
       0.023989718 0.019215474 0.022383645 0.0330879
0003e0 fc 1c 8e bc c3 ca be bc 13 a1 b9 bc 8e a5 af bc
       -0.017347805 -0.023290044 -0.022659814 -0.021441247
0003f0 ed 9a 6b bc 7a ff 44 bc b6 ee b7 bc 4c 7a bb bc
       -0.014380199 -0.012023801 -0.022452693 -0.022885464

clf.linear.bias f4 [4]
000000 a6 eb 9b be 8a 95 4d 3d 49 f7 3c 3c 52 82 12 3e
       -0.30453223 0.05019144 0.011533567 0.14307526

best_model_score f8 []
000000 75 ce 06 9c 0f c5 e2 3f
       0.5865552947420399

exp_avg f4 [8, 1, 1, 64]
000000 f5 0b c9 3a 63 0a 4a 3a 6f d5 46 ba fa 51 45 38
       0.0015338646 0.0007707236 -0.00075849047 4.7044807e-05
000010 38 1b 37 3b a7 f9 ac 3b ff 27 a9 3b e8 ef cc 3a
       0.0027939808 0.0052787843 0.0051622386 0.0015635462
000020 de f0 51 bb 4c 81 b6 bb 71 d3 8f bb 26 04 06 bb
       -0.0032034437 -0.0055696126 -0.0043892195 -0.002044925
000030 75 82 eb ba 09 13 fb ba 52 29 41 3a 70 af 83 3b
       -0.0017967956 -0.0019155453 0.0007368523 0.0040187165
000040 25 2c 67 3b 92 2d 65 39 65 31 8f b9 99 e8 08 3b
       0.0035274115 0.00021856118 -0.00027311887 0.0020890592
000050 51 c7 ea 3a df ef fa ba e4 61 8b bb d0 9d 1b bb
       0.0017912184 -0.0019144973 -0.004253613 -0.0023745187
000060 fb 31 57 3a 47 6f 01 3b 5d 05 26 3a 88 58 e5 ba
       0.0008209047 0.0019750164 0.00063331967 -0.0017497698
000070 b2 25 47 bb 0b 5a e7 ba ec b0 a2 3a 9e 52 02 3b
       -0.0030387458 -0.0017650736 0.0012412346 0.001988567
000080 62 01 7b 38 93 39 23 ba 06 df eb 3a 0c 22 50 3b
       5.984435e-05 -0.0006226536 0.0017995543 0.0031758575
000090 71 51 cc 39 d6 d1 59 bb 07 45 80 bb 2a e8 03 bb
       0.0003897059 -0.0033236644 -0.0039144787 -0.0020127394
0000a0 ad 09 d7 b9 34 9f 2b 37 e5 75 8d 39 a6 5d 57 3a
       -0.00041015205 1.0229462e-05 0.00026981454 0.0008215554
0000b0 51 3f 1a 3b c2 f1 8c 3b 55 04 6d 3b 6b e4 ba ba
       0.0023536275 0.0043012807 0.0036165912 -0.0014258748
0000c0 5b 61 d7 bb 3b 3a de bb f1 07 25 bb bb a5 15 3a
       -0.006572885 -0.006781844 -0.0025181735 0.00057085947
0000d0 e5 2a 2f 3a d1 55 28 3a ba df 4d 3b 8a 70 c3 3b
       0.0006682112 0.0006421479 0.003141387 0.0059643434
0000e0 03 fe c3 3b 61 6d 11 3b e9 df 34 bb 69 dd d7 bb
       0.0059812083 0.002219044 -0.0027599281 -0.0065876734
0000f0 26 e0 05 bc 75 0b e8 bb bd 6a 69 bb 2a ad 80 3a
       -0.008171117 -0.007081444 -0.00356166 0.0009817232
000100 ed 65 a1 ba 3f 7f 27 bb 8f 8b 4e bb ed 67 b6 ba
       -0.0012313701 -0.0025558022 -0.003151629 -0.001391647
000110 9a 2e c2 3a 4b 5e 36 3b e2 ac f8 3a f3 f1 d4 39
       0.0014814914 0.00278272 0.0018972422 0.00040616057
000120 d1 bb d9 b9 55 20 e8 b8 86 29 2f 3a 23 ec 59 3a
       -0.000415294 -0.000110686444 0.00066819077 0.000831308
000130 e6 bd 98 b8 31 17 87 ba b7 15 cd ba 3c 37 15 bb
       -7.283296e-05 -0.0010306594 -0.001564673 -0.0022768518
000140 c4 e6 3e bb 26 cc ee ba 96 af 92 3a ff 4c 5e 3b
       -0.0029129246 -0.00182188 0.0011191245 0.0033920405
000150 bb 33 3d 3b 13 6a 49 3a 3e d3 76 ba b4 bf dc ba
       0.0028869945 0.0007683348 -0.0009415633 -0.00168418
000160 fa 6d d7 ba 50 82 5a ba 3c 44 9a b8 69 a3 e8 b9
       -0.0016435974 -0.0008335458 -7.356002e-05 -0.00044372238
000170 60 a9 bd ba 48 28 b7 ba 0f 8b a1 39 4c 8c e5 3a
       -0.0014470033 -0.0013973797 0.0003081192 0.0017513125
000180 f5 d2 8b 3a 9e 9f 59 ba 60 03 a7 ba f2 09 b5 39
       0.0010667728 -0.0008301678 -0.0012742095 0.0003453042
000190 8b 86 e2 3a f1 cd 4e 3a f7 0c a9 ba a9 c1 02 bb
       0.0017282529 0.0007888964 -0.0012897541 -0.0019951856
0001a0 73 49 6b ba 5b a5 68 38 29 3c 93 b9 6c 0b 7f ba
       -0.00089754834 5.546711e-05 -0.00028082848 -0.000972918
0001b0 8f aa 61 ba 74 93 cc b6 49 22 6b 3a d7 37 bd 3a
       -0.0008608484 -6.0968396e-06 0.00089696475 0.0014436197
0001c0 4a e7 d3 3a f3 91 be 3a ce 7c 17 3a 12 88 75 ba
       0.0016166952 0.0014539346 0.000577879 -0.00093662844
0001d0 0e 6d 1d bb 83 49 42 bb 84 30 04 bb a1 18 31 b8
       -0.00240213 -0.0029645867 -0.002017052 -4.2223026e-05
0001e0 47 b8 d8 3a ea 75 12 3b f5 2d 0f 3b 89 4a ab 3a
       0.0016534411 0.0022348114 0.002184746 0.0013068478
0001f0 6d 02 c7 b9 88 15 e2 ba 79 5e f9 ba ec 76 c0 ba
       -0.00037958045 -0.0017248848 -0.0019025347 -0.0014683879
000200 1c ce bc ba f8 04 9d 39 44 74 a2 3a fc 61 b7 3a
       -0.0014404687 0.00029949076 0.0012394269 0.0013990994
000210 12 4d 8d b9 a0 66 5f bb e5 1f aa bb 91 65 44 bb
       -0.00026951038 -0.003408827 -0.0051917904 -0.0029967765
000220 89 08 19 3b fd 5b da 3b b9 df 02 3c c6 f0 fa 3b
       0.0023351035 0.006663798 0.00798791 0.007658097
000230 64 63 d8 3b 5c d1 53 3b fa 7f 51 bb 90 72 26 bc
       0.006603645 0.0032320833 -0.003196715 -0.01015915
000240 f8 6a 57 bc ad 07 2b bc b8 22 a1 bb d9 b8 2f b9
       -0.013148062 -0.010438842 -0.004917469 -0.00016758162
000250 9b f0 68 3b 79 31 ea 3b f1 c1 0a 3c 24 59 d6 3b
       0.0035543803 0.007147011 0.008469091 0.006541388
000260 21 5d 8b 3b 45 75 7f 3b 60 3f 37 3b c3 8d 20 bb
       0.004253045 0.003897981 0.0027961358 -0.002449856
000270 98 8f 17 bc 01 77 39 bc 8c 8c db bb ff b0 4e b9
       -0.009250544 -0.011319877 -0.006700104 -0.00019711627
000280 1e 1d 4c 3b 61 0c 64 3b 4b e1 3f 3b 93 a0 1f 3b
       0.0031145285 0.0034797417 0.0029278572 0.0024357184
000290 b1 9c f1 3a 94 92 97 3a b1 e1 48 3a 88 7a e3 3a
       0.0018433538 0.001156407 0.0007663025 0.0017355243
0002a0 5d 3c 88 3b a3 0a a7 3b 77 fc 14 3b fe 27 14 bb
       0.0041575865 0.0050977035 0.0022733489 -0.0022606845
0002b0 b8 41 8f bb ed c2 83 bb 9b 8b a3 bb a9 e5 fa bb
       -0.004371848 -0.0040210397 -0.0049910075 -0.007656772
0002c0 79 59 df bb 17 39 15 ba 68 38 c2 3b 7d 6e 01 3c
       -0.006816086 -0.0005692406 0.0059271343 0.007899878
0002d0 c9 12 d1 3b 03 b0 a6 3b 53 51 9b 3b c2 e3 58 3b
       0.006380413 0.0050869 0.004739919 0.0033094739
0002e0 75 ac a8 b9 5f f0 97 bb 42 a2 d0 bb 91 13 92 bb
       -0.00032171948 -0.0046368088 -0.006366999 -0.004457899
0002f0 eb 93 e8 ba e3 4d fa ba 9a db 3e bb f9 24 c0 ba
       -0.0017744278 -0.0019096698 -0.0029122592 -0.0014659456
000300 42 77 bb b9 d9 a7 73 3b 83 8b ae 3b db 1d 70 3b
       -0.00035756273 0.0037178902 0.0053266897 0.003663889
000310 75 06 36 3a ef 57 ac ba ba b0 86 ba 2d 9f 88 3a
       0.0006943711 -0.0013148765 -0.0010276057 0.0010423415
000320 33 1e 33 3b 89 d4 ef 3a fe 39 a2 ba 8e f7 4c bb
       0.0027331233 0.0018297593 -0.0012376902 -0.0031275484
000330 84 73 da ba 24 fb 84 3a b1 b5 a0 3a d9 4c a7 ba
       -0.0016666506 0.0010145647 0.001226118 -0.0012763991
000340 66 56 67 bb 38 25 37 bb d2 45 8c 39 70 2c 39 3b
       -0.00352993 -0.0027945768 0.000267549 0.0028255247
000350 5c 4f 49 3b a7 7f 14 3b d0 4c 20 3b b6 ab 5b 3b
       0.0030717468 0.0022659095 0.0024459846 0.0033519096
000360 a3 a8 42 3b 55 af 6e 39 10 2b 6f bb 7e 88 dc bb
       0.0029702566 0.00022762765 -0.0036494173 -0.0067301383
000370 e9 68 e2 bb 8b 29 46 bb 8b f0 20 3b ee 9b 98 3b
       -0.006909479 -0.0030237164 0.0024557437 0.00465726
000380 90 3f 32 3b 77 52 76 3a 86 82 1e 3b fd af 8d 3b
       0.002719853 0.00093964435 0.0024186685 0.004323958
000390 b7 7e 23 3b df 5c 2a bb 20 8f dc bb 3f f6 da bb
       0.0024947354 -0.0025995297 -0.006730929 -0.006682187
0003a0 e7 82 3c bb a5 5d ba 3a d9 c1 66 3b 3e 86 4b 3b
       -0.0028764547 0.0014218582 0.0035210757 0.0031055356
0003b0 a2 e6 04 3b 02 30 fe 3a e8 93 0b 3b 4b a1 c1 3a
       0.002027907 0.001939297 0.0021297876 0.00147728
0003c0 f3 3c c6 b9 0e da 46 bb 31 1b 90 bb b9 e2 2d bb
       -0.00037810914 -0.0030342373 -0.0043977727 -0.0026532842
0003d0 33 65 92 3a ea fa 3b 3b 3f b1 4f 3a 95 1a dc ba
       0.0011169076 0.0028683492 0.0007922835 -0.001679259
0003e0 74 e0 68 ba 2c 7f fa 3a 91 4a 3b 3b 6a 08 4c 3a
       -0.0008883544 0.0019111387 0.002857838 0.0007783236
0003f0 67 70 c4 ba 81 f3 8a ba 99 a7 f2 3a 3d 8e 7a 3b
       -0.0014987112 -0.0010601134 0.0018513083 0.0038231753
